weights.pth (torch_old, 5023 bytes, 8 tensors)

fc1.weight f4 [16, 49]
00000000: 0bd7 dabd ea4c ac3d a07a c23d 4f6b e0bd
00000010: f4ff 07be 39fc 16be 2c15 823d efb9 9c3d
00000020: b442 07be e990 95bd 0d13 0b3d 1c29 283b
00000030: ba96 b83d d9c6 223d 2b71 9a3d 8def 1ebd
00000040: f590 f03d 5424 0b3e 907e 88bd e72b 19be
00000050: d885 223d 9411 9f3d 6e80 ae3c 64f8 fb3d
00000060: 6921 25bd f62a c83b 4405 66bc b55b 5d3b
00000070: a825 813d 2e3f 233d 5905 ec3b fa2d 193e
00000080: d10c c63d 99d7 48bc c1af bebd 5584 e7bb
00000090: a34b 003e 423f e53d 6477 95bc 255b 4e3d
000000a0: 6a97 27be 0e1f 00be 33ce bfbd 21a2 543c
000000b0: 2999 d63c 0f13 2a3d d314 833d 1820 e13d
000000c0: dcd9 05be f6fb 753d 4777 a3bd 8701 c1bd
000000d0: aa2b 99bd b47d fa3d 4cad 5dbd d76a 0c3d
000000e0: 51fe 003e b7eb 94bd eb5c d43d 85ba 60bd
000000f0: 3487 013e dc41 2dbd 83df 0dbd 514b dc3b
00000100: 6fd8 c7bc 30b3 5d3d 3be3 eb3a f6c0 cdbd
00000110: 8dd8 033e fe90 1c3d 91e2 233d a28a 273d
00000120: 2cd3 57bd 8426 833c 52d0 fabc f3e1 bdbd
00000130: b001 09be bfb3 babd 858a 303d b7f4 5b3c
00000140: f2da e03d 59ed 9d3c 10f2 a7bb 69a3 a73d
00000150: 637f c4bc d913 a73d 479c 17be 9049 99bd
00000160: aa06 29be bbff b83d 7163 65bd b0a9 3c3d
00000170: 3801 863d ca73 c5bc bed4 ad3b c555 c5bd
00000180: 71b9 003e cf30 b43d 2f12 7dbd fe45 77bc
00000190: 4350 c83d 2296 cc3d 6aeb c4bd cbc0 9abd
000001a0: 4baa 283d eb1b d53c ce57 a7bd b02a 113d
000001b0: 3928 86bd f0f9 cd3d 6c54 d7bd 465d a0bd
000001c0: 6790 cb3c 3129 acbc c23b 893d 79ac a13d
000001d0: e2c9 8f3d 425c 6a3d 1c6f 043d 1bde d53d
000001e0: e391 3ebd fa4b c43d 44da 06bd 1310 74bd
000001f0: c382 a9bd e061 ec3d bac4 26bc 9273 0abe
00000200: d958 84bd 64ca 593d b757 c0bd 4743 fc3d
00000210: da3c f73d 054f 76bd e195 d43d 2245 07be
00000220: 4bdb 16bd dee8 e33c 7ab9 8fbd 62ef 95bd
00000230: f2cb dabd 4aa4 fdbd 1832 e93d 8b6f bcbd
00000240: 5a03 4fbd 7f0b 023e 32d4 d2bc 4182 1d3d
00000250: 7a83 59bd 35b1 ccba 303b bebd 0528 95bd
00000260: 16f1 643d bd98 14be 8d83 afbd be64 c23d
00000270: cfb4 d43d d102 73bc fb86 a2bd 75b1 d7bd
00000280: 6df1 1bbe 7ed4 423d 7b26 e13d fe2f 3e3c
00000290: 47db 64bd c80b 0e3e 3f2b 603d 91f0 a9bd
000002a0: bf1b 89bd aa29 04be 1e9e cd3d 9526 aa3c
000002b0: 4ea6 b3bc d2eb 01be 1d9c cc3d 6c2f 1d3e
000002c0: 1735 9d3d 7fad 9bbd 226f 8d3d 427e 903d
000002d0: 2294 cebc 9042 903d cf73 4b3d e2ef dfbd
000002e0: 0023 3bbd 0a2a 053e 2c1c a13d 9c0b 113b
000002f0: b57d 37bd 9c86 f83c 285b 9c3d bfb9 91bd
00000300: c496 8d3d 79be dc3d f6dd 90bd 48ae c5bd
00000310: 709d 663c d58a c9bc a2c9 83bd a18c 9f3c
00000320: 0986 03bc 565c e23d 1915 1a3d 6173 223e
00000330: a283 55bd 6800 6fbd 19ae 29bd bd66 1ebc
00000340: c56b 0c3d e659 41bd 7a23 96bd e1c8 e73c
00000350: 7a31 913d a782 30bc a4c0 1ebc 529a 14bd
00000360: 794f ab3d 2d32 58bb c107 ecbc e9e8 ef3d
00000370: 9864 083d 81e2 0dbe 3a85 38bd f041 1a3d
00000380: 4887 19bd 586f 5c3d f78d 2e3d 086e 25bd
00000390: 04fc 9e3c 19fc 32bd eb37 2a3d 230a 423d
000003a0: 2149 a03d ef3c ccbd c079 333e 5649 acbd
000003b0: 855f c8bc aca8 a2bd b5c7 053e 5e5c 04be
000003c0: a078 9cbd e400 8c3d 9f36 5dbd 135f f03c
000003d0: ce31 f1bc 5607 88bd 0af0 6ebd b4f8 263e
000003e0: 7014 95bd 6c64 69bd c8b9 19be 834e 2bbe
000003f0: 86f7 523d fdc1 e0bb 9106 2f3e 1dd5 a13d
-0.106855474 0.08413108 0.09496045 -0.109579675 -0.13281232 -0.14744653 0.063516945 0.076526515
-0.13209039 -0.0730303 0.033953715 0.0025659269 0.09013124 0.039740417 0.07541116 -0.038802672
0.11746398 0.13588077 -0.06664765 -0.14958154 0.039678425 0.07767025 0.021301474 0.12303236
-0.040315066 0.006108637 -0.014039341 0.0033776585 0.063060105 0.039855175 0.007202786 0.14958945
0.09670413 -0.012258434 -0.09310866 -0.0070653358 0.12528853 0.11193706 -0.018245406 0.05037989
-0.16366354 -0.12511846 -0.09365501 0.012978108 0.02619608 0.041522082 0.06400456 0.109924495
-0.13071388 0.06005474 -0.07981735 -0.094241194 -0.074790314 0.12231007 -0.054120347 0.034281578
0.12597014 -0.072715215 0.10369285 -0.05486538 0.12649232 -0.042299137 -0.034636986 0.0067228456
-0.024395196 0.054125965 0.0017996797 -0.1004657 0.12875576 0.038224213 0.040010992 0.040903695
-0.052691624 0.016009577 -0.030616913 -0.09271612 -0.1337955 -0.09116315 0.043100853 0.013425044
0.109792605 0.019278215 -0.0051252916 0.08185465 -0.023986524 0.081580825 -0.14805709 -0.07484734
-0.16506448 0.09033152 -0.056003038 0.046060264 0.06543201 -0.024103064 0.005304902 -0.096355
0.1257074 0.08798372 -0.06178492 -0.015092371 0.09780934 0.09989573 -0.09615214 -0.075563036
0.04117803 0.026014289 -0.08171044 0.0354411 -0.065506406 0.100574374 -0.10514149 -0.078302905
0.02484913 -0.021015735 0.06700851 0.07894225 0.07020928 0.05721689 0.032332525 0.10442754
-0.046525847 0.09584804 -0.032922998 -0.059585642 -0.08276894 0.11542106 -0.010178739 -0.13520649
-0.06462259 0.05317153 -0.0939173 0.1231752 0.120721534 -0.060133953 0.1038015 -0.13209966
-0.036830228 0.027821 -0.07017799 -0.07321049 -0.10683431 -0.12384851 0.11386508 -0.09200963
-0.050540306 0.12699698 -0.025735948 0.038454298 -0.0531039 -0.0015616777 -0.09288633 -0.07283024
0.05589398 -0.1451139 -0.08570013 0.09491871 0.10386049 -0.014832214 -0.07935902 -0.10531894
-0.15228815 0.04756593 0.10993668 0.011608122 -0.05587318 0.13871682 0.054728743 -0.082978375
-0.06694745 -0.12906519 0.10039924 0.02077035 -0.021929886 -0.12687615 0.09990714 0.15350121
0.07676142 -0.07601451 0.069059625 0.07055332 -0.02521712 0.07043946 0.04967099 -0.10934426
-0.045687675 0.13004318 0.078667015 0.0022132164 -0.044797618 0.030337624 0.07634574 -0.071155064
0.06913522 0.10778517 -0.07073586 -0.09652382 0.014075622 -0.024602333 -0.06434943 0.019476237
-0.008027562 0.11052768 0.037617777 0.15864326 -0.052127488 -0.058349997 -0.041425798 -0.009668049
0.034282465 -0.047204874 -0.07330985 0.028294029 0.07089515 -0.010773337 -0.009689484 -0.036279984
0.083647676 -0.0032988891 -0.028812291 0.11714346 0.03329906 -0.13855936 -0.04504893 0.03766054
-0.03748253 0.053817123 0.042615857 -0.040388137 0.01940728 -0.04369745 0.041557234 0.04737295
0.07826448 -0.0997256 0.17526913 -0.08412425 -0.02445961 -0.07942328 0.13064463 -0.1292586
-0.07640195 0.068361074 -0.05400717 0.02934221 -0.029442694 -0.06642024 -0.058334388 0.1630581
-0.07279289 -0.056980535 -0.15012276 -0.16729169 0.051505588 -0.0068590627 0.17092349 0.07901976

fc1.bias f4 [16]
00000000: e7e4 0bbe e53c ffbd 6317 cf3b c91b 423d
00000010: 1ff3 7fbd d936 303d 4791 3a3d e30e 913d
00000020: 983b 0bbd 319e 0dbd 5c55 84bd 466e 143d
00000030: fb21 cb3c 7ace 1c3e 481f 8abd 1441 c43d
-0.13661538 -0.124627866 0.0063199266 0.04738978 -0.062487718 0.043021057 0.045548704 0.070829175
-0.03399238 -0.03457469 -0.064615935 0.036237977 0.024796477 0.1531314 -0.06744248 0.09582725

fc2.weight f4 [4, 8]
00000000: 381a 96be bd4d 073f 302e 83be 8491 8a3e
00000010: 1e14 72be 7ad3 71be cb84 a6be 85b3 bb3e
00000020: f924 b3be e073 9abe 94d2 043e 6860 953e
00000030: fb44 353e b3aa 383f c27d a53e 4195 8a3d
00000040: bab3 a8be 1bd3 563e 6110 f93d f343 a5be
00000050: 6014 acbe e9c7 96be e101 f83d d55f 903e
00000060: 109f d0bc a4b9 95be 7af2 a1be 000f 1ebc
00000070: 3ebe 7e3e 18f7 a43c e970 91be 222f 3c3e
-0.29316878 0.52852994 -0.25621176 0.27064145 -0.23640487 -0.23615828 -0.32523188 0.366604
-0.34989145 -0.3016653 0.12970954 0.29175115 0.17702095 0.72135466 0.32322508 0.06766749
-0.3294962 0.20978968 0.12161327 -0.32278404 -0.33609295 -0.29449394 0.121097334 0.28198114
-0.025466472 -0.29243195 -0.31630307 -0.009647131 0.24877259 0.020137355 -0.28406456 0.18377355

fc2.bias f4 [4]
00000000: 2081 283e e60a 4c3e 2fa0 4a3d 86c4 a8bc
0.16455507 0.19926032 0.04946917 -0.020601522

fc3.weight f4 [4, 16]
00000000: dbd4 e53d 5841 833d 7739 013d 2cac 363e
00000010: 06e0 4a3e b5ce 8b3e 4ad0 6c3e a514 563e
00000020: cb91 30be dd84 8f3d d499 483d 4146 243e
00000030: d468 dc3d b27c 8a3e 506f bfbd 79c9 833e
00000040: 4dcf a93b b43c ee3d d4fe a53d 7e71 bebc
00000050: 2d51 0fbe 54ec 0dbe b2da a3bc 7167 0cbe
00000060: ef5c b33d 2e1e 6cbe c14a 86be fedb 4c3d
00000070: 408f d4bd 95f5 b43d b8ad 3d3e 022a 46bd
00000080: e891 703d 326a 32bd c8b3 493e 04a9 60bd
00000090: e7cd 273e 4568 483e d7f1 cfbd e872 2dbe
000000a0: fb58 243e 8c19 373d 4242 d8bd a718 66be
000000b0: 5216 22be e81c 31be fc04 e33c a856 ea3d
000000c0: 9ce4 003e 9c06 3dbe 00d1 b2ba 901e 0ebe
000000d0: 881e b1bd e846 733d b8fc b43d a027 a13c
000000e0: 00ed e4bd 4063 a03d 2e66 4cbe 9812 6dbd
000000f0: 8c4d 90bd 96e0 6ebe 2c4b 2e3e 10a4 523d
0.112222396 0.06408948 0.031548943 0.17839116 0.1981202 0.27306142 0.23126331 0.20906313
-0.17243116 0.070077635 0.048974827 0.16042425 0.10762182 0.2704826 -0.09347403 0.2573965
0.005182183 0.11632672 0.08105245 -0.023247477 -0.1399581 -0.13859683 -0.020001743 -0.13711335
0.0875796 -0.23058388 -0.26228908 0.05001449 -0.10378885 0.088359036 0.185233 -0.048379906
0.058732897 -0.043558307 0.19697487 -0.054848686 0.1638714 0.19571026 -0.10153549 -0.16938365
0.16049568 0.044702098 -0.10559513 -0.22470342 -0.15828827 -0.17296183 0.027712338 0.114423096
0.12587208 -0.18459553 -0.0013642609 -0.13878846 -0.086484015 0.059393793 0.08837265 0.019672215
-0.11178017 0.078314304 -0.19960853 -0.05787906 -0.07046041 -0.2332786 0.17020863 0.051425993

fc3.bias f4 [4]
00000000: 65ac 873d 6e9b a0bc eddb 8c3e 88d2 44be
0.066246785 -0.019605365 0.2751154 -0.19220936

fc4.weight f4 [4, 8]
00000000: 1d61 4dbe 8669 af3e fdbe 5c3e 6eb9 9bbe
00000010: 3089 033e 4844 a03c 0de6 063e 7e6d 8f3e
00000020: 00ef 453e 04f6 8abe ea22 833e 4596 873e
00000030: f0af 85be a94a abb9 7b8c 8ebe e4a3 183e
00000040: ad37 79be b910 88bc 73f2 1a3e ac3a 8ebe
00000050: 6456 1e3e b4d1 923e ea36 d3bc 3ea5 25be
00000060: e13d f53d a3e3 9ebe 84a8 1e3e 2417 10be
00000070: f48a a6be 1195 a43b f657 823e 7d5b 20be
-0.20056577 0.34260195 0.21557231 -0.3041491 0.12845302 0.019563809 0.13173695 0.28013223
0.19329453 -0.2714082 0.25612575 0.26481834 -0.26110792 -0.00032671288 -0.27841553 0.1490627
-0.24337645 -0.016609536 0.1513155 -0.27779138 0.15462643 0.28675616 -0.025783021 -0.16176316
0.11974693 -0.31033048 0.15493971 -0.14071327 -0.32527888 0.005022653 0.25457734 -0.156599

fc4.bias f4 [4]
00000000: 5b08 023d f09d 953e 8a8b bc3d 5c7c 653e
0.03174625 0.2922206 0.092063025 0.2241072
